custom_model.pt (torch, 573588 bytes, 21 tensors)

embedding.weight f4 [582, 128]
000000 00 00 00 00 00 00 00 00 00 00 00 00 00 00 00 00
       0.0 0.0 0.0 0.0
000010 00 00 00 00 00 00 00 00 00 00 00 00 00 00 00 00
       0.0 0.0 0.0 0.0
000020 00 00 00 00 00 00 00 00 00 00 00 00 00 00 00 00
       0.0 0.0 0.0 0.0
000030 00 00 00 00 00 00 00 00 00 00 00 00 00 00 00 00
       0.0 0.0 0.0 0.0
000040 00 00 00 00 00 00 00 00 00 00 00 00 00 00 00 00
       0.0 0.0 0.0 0.0
000050 00 00 00 00 00 00 00 00 00 00 00 00 00 00 00 00
       0.0 0.0 0.0 0.0
000060 00 00 00 00 00 00 00 00 00 00 00 00 00 00 00 00
       0.0 0.0 0.0 0.0
000070 00 00 00 00 00 00 00 00 00 00 00 00 00 00 00 00
       0.0 0.0 0.0 0.0
000080 00 00 00 00 00 00 00 00 00 00 00 00 00 00 00 00
       0.0 0.0 0.0 0.0
000090 00 00 00 00 00 00 00 00 00 00 00 00 00 00 00 00
       0.0 0.0 0.0 0.0
0000a0 00 00 00 00 00 00 00 00 00 00 00 00 00 00 00 00
       0.0 0.0 0.0 0.0
0000b0 00 00 00 00 00 00 00 00 00 00 00 00 00 00 00 00
       0.0 0.0 0.0 0.0
0000c0 00 00 00 00 00 00 00 00 00 00 00 00 00 00 00 00
       0.0 0.0 0.0 0.0
0000d0 00 00 00 00 00 00 00 00 00 00 00 00 00 00 00 00
       0.0 0.0 0.0 0.0
0000e0 00 00 00 00 00 00 00 00 00 00 00 00 00 00 00 00
       0.0 0.0 0.0 0.0
0000f0 00 00 00 00 00 00 00 00 00 00 00 00 00 00 00 00
       0.0 0.0 0.0 0.0
000100 00 00 00 00 00 00 00 00 00 00 00 00 00 00 00 00
       0.0 0.0 0.0 0.0
000110 00 00 00 00 00 00 00 00 00 00 00 00 00 00 00 00
       0.0 0.0 0.0 0.0
000120 00 00 00 00 00 00 00 00 00 00 00 00 00 00 00 00
       0.0 0.0 0.0 0.0
000130 00 00 00 00 00 00 00 00 00 00 00 00 00 00 00 00
       0.0 0.0 0.0 0.0
000140 00 00 00 00 00 00 00 00 00 00 00 00 00 00 00 00
       0.0 0.0 0.0 0.0
000150 00 00 00 00 00 00 00 00 00 00 00 00 00 00 00 00
       0.0 0.0 0.0 0.0
000160 00 00 00 00 00 00 00 00 00 00 00 00 00 00 00 00
       0.0 0.0 0.0 0.0
000170 00 00 00 00 00 00 00 00 00 00 00 00 00 00 00 00
       0.0 0.0 0.0 0.0
000180 00 00 00 00 00 00 00 00 00 00 00 00 00 00 00 00
       0.0 0.0 0.0 0.0
000190 00 00 00 00 00 00 00 00 00 00 00 00 00 00 00 00
       0.0 0.0 0.0 0.0
0001a0 00 00 00 00 00 00 00 00 00 00 00 00 00 00 00 00
       0.0 0.0 0.0 0.0
0001b0 00 00 00 00 00 00 00 00 00 00 00 00 00 00 00 00
       0.0 0.0 0.0 0.0
0001c0 00 00 00 00 00 00 00 00 00 00 00 00 00 00 00 00
       0.0 0.0 0.0 0.0
0001d0 00 00 00 00 00 00 00 00 00 00 00 00 00 00 00 00
       0.0 0.0 0.0 0.0
0001e0 00 00 00 00 00 00 00 00 00 00 00 00 00 00 00 00
       0.0 0.0 0.0 0.0
0001f0 00 00 00 00 00 00 00 00 00 00 00 00 00 00 00 00
       0.0 0.0 0.0 0.0
000200 54 90 ce bf 59 3f 98 3e 1d ad 0b bf ac cf e6 3f
       -1.6137795 0.2973583 -0.54561025 1.8032126
000210 3d bf 1f bf 92 19 0f be 4d 17 bf be 22 61 66 3f
       -0.6240118 -0.13974598 -0.37322465 0.8999196
000220 6d 73 5f 3f 5b 70 8f 3a ee af 92 bf 35 8e 7f 3e
       0.872855 0.0010943519 -1.145994 0.24956591
000230 0c 2d d2 3e 94 5a ae 3f f1 0a 88 bf 12 9d 12 3e
       0.41049993 1.3621392 -1.0628339 0.1431773
000240 1f f5 59 bf 3e a8 4c bf 59 87 91 bd 03 a2 8d 3f
       -0.8513965 -0.7994422 -0.07105894 1.1065067
000250 01 da a5 bf db 84 a0 3e ca d8 bf 3f 46 2e 83 3f
       -1.2957155 0.3135136 1.4988034 1.0248497
000260 3e 9b 05 bf fb 1d 09 3f 89 8d 59 bf fc 8a 75 3d
       -0.52190006 0.5356137 -0.8498159 0.059947
000270 d0 4a bc bf 0c 34 37 3f 73 f5 5c 3e 5b 85 3c 3f
       -1.4710331 0.7156379 0.21578006 0.73640984
000280 4e 3c 1f be e9 16 80 3f 9c 8c 47 be e5 54 ef bf
       -0.15550348 1.0006992 -0.19487232 -1.8697783
000290 8f e0 dc bf 37 27 6f bf d2 b7 9d be 78 61 2b 3f
       -1.725603 -0.9341921 -0.30804306 0.669456
0002a0 0c 5a 2c be 06 0d 80 3f 5b 2f a1 3f 21 2a 8c 3f
       -0.16831225 1.0003974 1.2592577 1.0950357
0002b0 9c 98 45 bf 12 6a 23 bf 52 3b f7 3c 92 55 ac be
       -0.7718599 -0.63833725 0.030179653 -0.33659035
0002c0 27 cb c0 3d 37 cf c8 3e 78 8f ac be ca 9a eb bf
       0.09413748 0.39220592 -0.33703208 -1.8406613
0002d0 7c 43 ec 3d 1e 62 08 be db b1 18 bd 64 69 87 3f
       0.11536309 -0.13318679 -0.03727899 1.0579038
0002e0 9e 33 b8 3e b8 b5 3f 3e 25 9e 7f be da d8 56 be
       0.3597688 0.18721664 -0.24962671 -0.2098116
0002f0 17 1b 38 3e 4c ee 27 bf b6 b0 74 3f a8 1f 70 be
       0.17979084 -0.6559799 0.9558214 -0.23449576
000300 e7 80 02 3f f5 a6 35 3f a1 67 1c be 53 b9 46 bd
       0.5097794 0.7095788 -0.15273906 -0.048516583
000310 41 5b 9f 3f 41 42 52 bf 81 e2 9d be 01 43 1e 3d
       1.2449723 -0.82132345 -0.3083687 0.03863812
000320 3e 62 82 3e ab e3 f6 be 79 5b 00 3d 86 18 43 3f
       0.25465578 -0.48220572 0.031337235 0.76209295
000330 7d a1 c6 3f 3d 30 24 c0 aa 40 22 3f 0c cb 2d bf
       1.5518032 -2.5654442 0.6337992 -0.6788795
000340 3d cd 09 3f 94 41 40 bf 28 0f 95 bf 20 5d 9e bd
       0.53828794 -0.75100064 -1.164525 -0.07732606
000350 7e 1f 90 3f 09 ae 80 3f 76 3a fc 3e 57 d7 8c bf
       1.1259611 1.0053111 0.49263352 -1.1003217
000360 93 62 3f bd e8 1c b0 3f 3c 5b a4 3f 55 da 1d c0
       -0.046724867 1.3758821 1.2840343 -2.466451
000370 70 08 6c bf 0b 29 c8 bc 5a b8 84 3d d6 bb de 3f
       -0.92200375 -0.024433633 0.06480475 1.7401073
000380 7e b8 ee be fa 3e 4d 3f 5e a4 98 3e cf a2 2c 3f
       -0.4662513 0.8017422 0.29812902 0.67435926
000390 24 98 39 3f 70 6a ac bf 75 03 94 bf c4 68 01 bd
       0.72497773 -1.3469982 -1.1563555 -0.031594053
0003a0 2a 6e a6 3e 47 60 b0 3f 12 c4 c6 be ae 82 52 bf
       0.32505924 1.3779382 -0.38821465 -0.8223065
0003b0 24 f8 b4 be fa f5 db 3e 81 16 97 3f 89 98 85 bd
       -0.35345566 0.42961103 1.1803743 -0.065232344
0003c0 51 99 7f bd 54 9f b3 3e c7 c6 b4 3c 9b b1 69 3f
       -0.062402073 0.35082495 0.02206744 0.9128663
0003d0 53 c1 c2 3d 21 a3 19 be 91 ca 3a 3f 3c a6 14 3f
       0.0950953 -0.15003635 0.7296534 0.58066154
0003e0 a2 2c d1 3e 21 38 67 3f b9 9c 8f bf 98 3a 7d 3e
       0.40854365 0.9032002 -1.1219703 0.24729383
0003f0 9f db 67 3f d2 d4 08 bf f0 10 35 bf b0 49 89 bd
       0.9056949 -0.5344974 -0.7072897 -0.06703508

moe.experts.0.0.weight f4 [64, 128]
000000 c5 0a 58 bd 00 14 31 3d 35 ad 25 bd 06 49 56 3d
       -0.052744646 0.043231964 -0.040448386 0.052315734
000010 c7 c8 95 bc 53 f3 6c bd a6 5f 73 3d da 80 01 be
       -0.018284215 -0.05784924 0.05941739 -0.12646809
000020 58 9b 64 3d 10 45 d5 bb 42 e0 f0 3c 98 74 81 bd
       0.05581221 -0.006508477 0.02940381 -0.063210666
000030 47 e6 5f 3c 05 ed ce 3d f5 10 6f bc bb fe 12 3d
       0.013665742 0.10103802 -0.014591445 0.03588746
000040 a8 81 c0 3d 63 81 4a bd 04 c6 05 bc ed 3d 3c 3d
       0.0939973 -0.0494398 -0.008164886 0.045957495
000050 6d 50 07 bd be 7d 9a 3d e7 6b 80 bd 6f cb 1c bd
       -0.033035684 0.07543515 -0.06270581 -0.038279947
000060 bd 00 36 bd 49 a3 c1 3d 91 82 46 3d 33 91 a0 bd
       -0.044434298 0.09454972 0.04846436 -0.078401946
000070 6f 21 c5 bc a6 71 ba bc 22 f3 c4 ba 42 0f bc 3d
       -0.024063794 -0.02275927 -0.0015026073 0.09182598
000080 ad 82 a8 bc b5 14 a9 bd df 5f 21 3d a7 7b 6e bd
       -0.020570124 -0.08255903 0.03939807 -0.058223393
000090 da f9 d1 bc 9b 9f 5c 3a 1d ce c6 3d 35 b0 01 bb
       -0.025631834 0.0008416117 0.09707282 -0.0019788865
0000a0 cb 89 2a 3d 35 d2 de bc 2f f2 2a bd a9 9d 63 3d
       0.041635316 -0.027199844 -0.04173487 0.05557028
0000b0 d3 3b d0 bd 83 15 22 3d a6 0f 5a 3d 03 31 9b bc
       -0.101676606 0.039571296 0.05323758 -0.018944269
0000c0 2c 61 97 3d e8 c3 03 3d 5d d6 58 3d af 3b 0c bd
       0.07391581 0.032169253 0.052938808 -0.034236606
0000d0 5a 31 78 3d 4c 2b a4 3c de a7 d9 bc 78 8b a5 3c
       0.06059394 0.020040177 -0.026569303 0.020208105
0000e0 f7 89 73 3d 65 9b e3 3d d8 f4 d7 3c c9 2d da 3d
       0.059457745 0.111136235 0.026361868 0.10653264
0000f0 95 16 00 be a8 21 c8 3d 91 9d c0 3c a2 f2 fe bd
       -0.12508614 0.097720444 0.023512634 -0.12448622
000100 b9 06 95 3d 66 6d 5c bd 2d 7d 33 3d dc 0b 05 bd
       0.07276673 -0.053815268 0.04382055 -0.032482013
000110 0a 1f 1e 3d 72 b8 b2 bc 53 ca 97 3d 05 e2 9a 3c
       0.03860382 -0.021816466 0.07411637 0.018906603
000120 12 79 15 bd b3 c0 b3 3d 1e 4d f5 bc 30 90 9b bd
       -0.036492415 0.08776989 -0.029943999 -0.07595861
000130 62 9b 26 bd 41 04 59 bd 4f 43 47 bd 2f 76 a6 3c
       -0.04067553 -0.052982572 -0.048648175 0.020320026
000140 22 92 cb bd 9b c4 a3 3c 32 18 1f bd fb e3 62 3d
       -0.09939982 0.01999121 -0.038841434 0.0553932
000150 e3 1e ce bd 06 c0 03 3d 39 ad 30 3c 65 0a 18 3d
       -0.10064485 0.03216555 0.010783487 0.037119288
000160 0b f7 cd 3d 1a 6d e8 bd d6 69 b6 bd 66 c0 10 bd
       0.10056885 -0.113489345 -0.08906905 -0.035339735
000170 2c 01 fb 3d 1f ef 3a bd bd 95 3f 3d 77 5c 7a 3d
       0.12256083 -0.0456382 0.04677366 0.061123338
000180 07 61 4f 3d 4d 15 c8 3d f2 f5 87 bd fd 0b 29 bd
       0.05062964 0.09769688 -0.06638707 -0.0412712
000190 b4 12 12 3b 33 24 d1 3d 16 94 9b 3b 3f da 9b bd
       0.002228898 0.102119826 0.004747878 -0.076099865
0001a0 b1 fb 30 3d 0d 42 97 bd b1 53 2f bc 45 ae 47 bd
       0.04320878 -0.07385645 -0.010701106 -0.04875018
0001b0 be c0 81 bc f3 6f c0 bd ff 2a de bd cd 58 dd ba
       -0.015838977 -0.093963526 -0.108480446 -0.0016887427
0001c0 8b a8 ac 3c 16 9c 92 3d 5e 85 6b 3d d3 3c 72 3d
       0.021076461 0.07158677 0.057500236 0.059140038
0001d0 26 b3 83 bc 26 a4 87 bc 7e be 63 3c aa 73 0c bd
       -0.016076636 -0.016557764 0.013900397 -0.034289993
0001e0 65 a8 ee 3d 07 dd 3b bd 17 2e ea 3c 81 ae 2b bd
       0.116532125 -0.045865085 0.02858643 -0.041914467
0001f0 e6 56 94 3c f0 ef 88 3d 65 da da 3a fe 57 17 3d
       0.018107843 0.066863894 0.0016697167 0.03694915
000200 53 76 19 bd 70 df a5 bd 8c fc a5 bd 4b 6d 21 3d
       -0.03746636 -0.08099258 -0.0810481 0.03941087
000210 e9 43 79 bd 1d cc 6a 3c 8c 2b 40 bd 14 34 21 bd
       -0.06085578 0.014330891 -0.04691653 -0.039356306
000220 4a 1e 14 3d 3d 74 6c bc e5 f3 42 bd 8c 22 5a 3d
       0.0361617 -0.01443201 -0.047595877 0.053255603
000230 6f 1e bd 3d 6c 58 92 bd 4e 69 b2 bc e5 86 58 bd
       0.0923432 -0.071457714 -0.021778729 -0.05286302
000240 dd d2 62 bc 70 58 57 3c 3b a6 21 bd f2 01 79 3d
       -0.013844219 0.013143644 -0.03946517 0.06079287
000250 c5 ec a9 bc fd 22 64 3d 72 f0 48 bd ae 80 f6 bc
       -0.020742783 0.05569743 -0.04905743 -0.030090656
000260 a1 80 85 bd c5 d8 a8 bd 51 5c 33 bd 3b 82 91 bc
       -0.06518675 -0.082444705 -0.04378921 -0.017762294
000270 d8 7e 87 bd c7 60 56 3d 5a 4b cc bd d5 6d 65 39
       -0.066159904 0.052338388 -0.0997531 0.00021880057
000280 f1 7d 21 bd df 30 9a 3d 9c cd 8b 3d 35 52 a4 bd
       -0.039426748 0.07528853 0.06826326 -0.08023492
000290 53 c4 b8 3d c2 0b 47 bc 46 32 d4 3c d0 61 a0 bd
       0.09021821 -0.012148799 0.025902878 -0.07831156
0002a0 51 2f 20 3d 78 af 01 3d d0 b6 82 3d a2 57 92 3c
       0.039107624 0.03166148 0.06382525 0.017864052
0002b0 ba af ee bc fb f8 45 3d 7a d6 d9 3d 77 55 cd 3c
       -0.029136527 0.04833315 0.10636611 0.025065167
0002c0 f0 b0 02 3d 4a ca 79 3d 77 69 ae bd 9e ce 0f 3d
       0.031907022 0.060983934 -0.085162096 0.035109155
0002d0 6c b7 56 bd be 07 9f ba fa 52 9f bd 2f 09 20 bd
       -0.05242102 -0.0012133045 -0.077794984 -0.03907126
0002e0 ea 7e a7 bd 3e e1 57 bc 4e b1 00 3d e5 2d 47 3c
       -0.08178504 -0.0131762605 0.03141909 0.012156938
0002f0 85 14 4f bd 58 16 d6 bc 2a 29 52 bc be 82 bc 3c
       -0.05055668 -0.026133701 -0.012827197 0.023011561
000300 f5 3d b3 3d e2 c2 0d bd 66 09 10 3d 45 32 8b 3d
       0.08752052 -0.034609683 0.035165213 0.067966975
000310 94 86 42 3d 3d e6 1b bc bf dd 25 3b b0 41 30 3d
       0.047491625 -0.009515342 0.0025309173 0.043031394
000320 d6 22 39 3d 77 24 8a bc e7 04 7f 3b 62 77 9d bd
       0.045199238 -0.01686309 0.0038912834 -0.07688786
000330 9c c7 3e bd dd b7 d0 3d 5c 2e 7a 3d 09 8a 69 3c
       -0.04657708 0.10191319 0.061079368 0.014254102
000340 3c a0 b6 bd 17 74 32 bd 8b d2 9c 3d 10 fb b2 3d
       -0.08917281 -0.043567743 0.076573454 0.087392926
000350 f8 d7 d3 3c 87 34 dc bc 24 c0 81 bd 0e 06 34 bd
       0.025859818 -0.026880516 -0.06335476 -0.043951087
000360 93 05 e0 3c 0c fa 72 3d 57 46 39 bd 7d ec 9b 3d
       0.027346408 0.059320495 -0.045233097 0.07613466
000370 5c 1e 49 3d 03 0b 05 bd f7 b9 c6 bd 3c 79 db bc
       0.04910122 -0.032481205 -0.09703439 -0.026791207
000380 f2 4d 82 bd f9 78 2b 3d 65 03 e5 bc ff d6 1c 3d
       -0.06362523 0.041863415 -0.02795572 0.038290974
000390 1f 5a 5c bc 6a b2 27 3d c8 e2 64 bd a3 be 3d 3d
       -0.013449221 0.040941633 -0.055880338 0.046324383
0003a0 dc 5c 93 bd 40 5c 81 3d 40 95 b1 bd b3 0e c1 3b
       -0.07195446 0.063164234 -0.08671045 0.005891645
0003b0 9c 7c b6 bd c3 1f a2 bd 58 d8 63 bd 2c 50 4e bd
       -0.08910486 -0.07916214 -0.055626243 -0.050369427
0003c0 58 aa 03 3e 91 e0 8a bd 1a 9a 37 bd 44 16 1f 3d
       0.1285795 -0.06781114 -0.044824697 0.038839594
0003d0 2c 6f a6 3d 7d 7a 8d bd 54 2e 13 bc 32 a3 9e 3d
       0.08126673 -0.069081284 -0.008983213 0.07745971
0003e0 5b 41 4d bd 05 6f 5c bd 85 a8 77 3b f1 32 a9 3c
       -0.050111156 -0.053816814 0.0037789654 0.020654174
0003f0 f9 bd a7 bd f3 f6 73 3c 02 6f d5 bd 61 d3 9a bd
       -0.08190531 0.01489042 -0.10421564 -0.075598486

moe.experts.0.0.bias f4 [64]
000000 9d 06 80 3d 8c 4b da 3c 6e 5c 2a 3d 0a 78 05 3a
       0.062512614 0.026647352 0.041592054 0.00050914346
000010 0d 1e be 3d c9 26 21 3b 4f a0 24 3d 0f d2 7f 3c
       0.092830755 0.0024589768 0.040191945 0.015614047
000020 90 92 0e bd ba 1b bb 3d d8 18 e1 3b 3c ee 28 3d
       -0.03480774 0.09136148 0.0068694167 0.041242823
000030 0b 06 c1 3d 59 1e d0 3d b2 cf 3a bd 73 c8 8b bc
       0.09424981 0.10162038 -0.04560823 -0.017063355
000040 b7 28 09 bd 4d 61 d3 3d 04 c8 d3 3d 7e 40 96 3d
       -0.033486094 0.10321293 0.10340884 0.0733652
000050 ab 74 f0 3c 62 59 27 3b 33 aa 82 3b e7 9f 35 3d
       0.029352507 0.0025535454 0.0039875745 0.044341948
000060 8e c9 85 bc 40 33 27 3c ed 7c 93 3b d6 a7 a2 bc
       -0.01633146 0.01020509 0.0045009763 -0.019855421
000070 6b 75 41 3c 70 a9 db 3b fd bc d5 3d 19 81 67 bd
       0.01180778 0.006703548 0.10436437 -0.0565196
000080 94 80 bf 3a 1c 47 24 bc 5a 0d 6c bd 85 80 20 3d
       0.0014610463 -0.010026719 -0.05762992 0.039185066
000090 1b ee 9e 3c 13 0a d2 3d fb f4 1d 3d 1c 52 07 3d
       0.019400647 0.10255828 0.03856371 0.03303729
0000a0 9d a3 8d bc 27 cc 27 3d 1b a7 cd bc 85 6c 29 3d
       -0.017289931 0.04096618 -0.025104096 0.041363258
0000b0 c3 a4 03 3d d0 39 dc 3c 52 b2 c4 bb 3d 95 2c 3d
       0.03213955 0.026883036 -0.0060027028 0.042134512
0000c0 d9 45 2b 3d 03 df 9b 3d 57 68 cc 3d 47 19 73 3d
       0.04181466 0.076108955 0.09980839 0.05935028
0000d0 6c ce 8a 3c a6 87 cb 3d 17 3e 88 3d 06 93 8d 3b
       0.016944133 0.09937982 0.06652468 0.004320505
0000e0 0b 93 5e 3d 98 23 b1 3d 8c 13 bf 3d f1 b7 e5 3d
       0.05433945 0.08649367 0.093299 0.11216725
0000f0 94 02 d5 3d ab 0d 9a 3c 6c 8c 53 3c d9 b0 ac 3d
       0.10400882 0.018805346 0.012911897 0.084321685

moe.experts.0.2.weight f4 [128, 64]
000000 90 f2 89 bd f9 a9 08 3e a4 83 53 3c c7 a7 cc ba
       -0.06735718 0.1334609 0.012909804 -0.0015613966
000010 cd 90 1f be 98 9c 55 bc 8f c0 7a 3d db 09 22 3e
       -0.15582581 -0.013037823 0.061218794 0.15824072
000020 a5 5a 1b 3c 3b ab aa 3c e8 8a cb bc d2 10 99 3d
       0.009482061 0.020833602 -0.02484651 0.07473911
000030 97 5b 25 3e e0 41 8a 3c 4a 0e b0 bc bd 03 de 3b
       0.1614822 0.016877115 -0.021491189 0.006775348
000040 3f f1 0c 3e 53 3d 0f 3e 7b ac 0c be f1 de ac bd
       0.13763903 0.13988237 -0.13737671 -0.0844096
000050 80 f1 9c 3d 23 8d 85 bd 12 4c e9 3d b6 ec ae bc
       0.0766325 -0.0652106 0.113914624 -0.021353107
000060 ef 4a 95 bd dc 17 5d 3d c7 8b 82 bc 8d 26 e0 bd
       -0.07289683 0.053977832 -0.015935792 -0.10944853
000070 6a f3 b2 3d fa 21 a5 ba ae ec 6e bd 28 c6 9a bd
       0.08737834 -0.0012598627 -0.058331184 -0.075573266
000080 6c a5 7d bc 5b 0a e0 bd a7 9b 7a 3d 82 f7 4e bd
       -0.015481334 -0.10939475 0.061183598 -0.05052901
000090 a5 5a db 3d 0c 53 00 3d 38 a6 8e 3b 2c 7b 54 bd
       0.107106484 0.0313292 0.004353311 -0.05187528
0000a0 9e 2b 14 bd a9 7a 15 be 83 9e 21 3e b7 58 dd bd
       -0.03617441 -0.14597572 0.15783124 -0.10807937
0000b0 be 22 e3 bc 55 6a a4 bc e7 9d 84 bc b4 98 4b bd
       -0.027726527 -0.020070234 -0.016188575 -0.049706176
0000c0 01 9f 7c 3d 18 84 96 bd cc 41 15 bc 78 c8 8c 3d
       0.061675075 -0.07349414 -0.0091099255 0.06874174
0000d0 4f fe b9 bd e4 ba aa 3d d8 29 83 3d 36 7d 00 bd
       -0.09081709 0.08336428 0.064044654 -0.03136941
0000e0 55 a4 32 3d 81 ba 06 3e 32 93 a4 bd 61 c4 fb 3d
       0.04361375 0.13157083 -0.08035888 0.12293316
0000f0 ff a4 00 3e 93 f6 ec bb 55 e6 99 bd 5a e0 22 3d
       0.12562941 -0.0072315424 -0.075146355 0.03976474
000100 76 b0 28 3e 4c eb 17 3d 3b fb e9 bd 74 19 57 3d
       0.16473565 0.03708963 -0.114248715 0.05251451
000110 3c b9 07 bd ec c0 89 bd 06 ec d4 3d cc 76 46 3d
       -0.033135638 -0.0672625 0.103965804 0.048453137
000120 17 cd 8a 3d 9f 79 84 3b 77 7c 05 be 57 bc 5e 3d
       0.06777399 0.0040428187 -0.13035761 0.054378834
000130 04 3c ee 3d 00 92 87 3d b3 96 f0 3d 98 a6 95 bc
       0.11632541 0.06619644 0.117474936 -0.018267915
000140 ce 35 bd 3d 74 6a cf 3c ea 93 49 be 7e b1 c1 bd
       0.09238778 0.025319315 -0.19685331 -0.09457682
000150 ef e6 0e 3e 0d 20 24 3d c3 6d c4 3c 02 4b aa bd
       0.13955282 0.04006963 0.02397812 -0.08315088
000160 e3 42 4a 3d 57 03 0b 3e ac fc 50 3d e2 fd 13 bd
       0.049380194 0.13575493 0.051022217 -0.036130793
000170 c6 82 b0 3c 3d 5f a1 3d 93 51 98 3d b7 7c 09 be
       0.021546733 0.078794934 0.07437434 -0.13426481
000180 d7 58 6c 3c 9c e2 c6 3b af d6 e3 3d 8f 36 4b 3d
       0.014425478 0.0060694944 0.11124932 0.049612578
000190 db 6d e3 3d ef 1c b3 bd e8 e4 ee bd 46 90 c4 3d
       0.11104938 -0.08745753 -0.11664754 0.095978305
0001a0 8f 59 33 3c ff 9c 0e be c5 ee 8a 3d fa 83 08 bd
       0.010946645 -0.13927077 0.06783823 -0.033328988
0001b0 95 54 ac 3c d4 a0 ee 3b ba e7 ce 3d ea 52 ed 3d
       0.021036426 0.007282356 0.10102792 0.1158808
0001c0 9e 5a d5 bd 66 a4 b5 bc d7 be 14 3e bb 28 0b 3e
       -0.104176745 -0.022173118 0.14525925 0.13589756
0001d0 29 e0 a6 bd 8c 43 d4 3c 04 25 94 3d 16 28 0c bd
       -0.08148224 0.025911115 0.07233623 -0.034217916
0001e0 59 89 5b bd 00 cf db 3d 78 5b 19 bc 8c 72 0c 3e
       -0.05359778 0.107328415 -0.009360187 0.13715571
0001f0 44 24 66 bd 8c 82 07 be a9 b2 34 be 37 e5 d0 3b
       -0.05618693 -0.13233393 -0.17646278 0.006374981
000200 6e c5 08 3e 2e d2 44 3d a8 c8 0a be bf 57 f5 3c
       0.13356563 0.048052005 -0.13553107 0.029949067
000210 c3 21 9d bd a2 2a a9 bc 4f 95 8f 3d 62 83 17 3b
       -0.07672455 -0.020650212 0.070109 0.0023119082
000220 47 ad 3a bd aa 57 fa 3c 07 c2 57 bd df 86 a4 3d
       -0.045575406 0.03055938 -0.052675273 0.08033537
000230 da 70 2b bd 9e 1d 78 bd f1 98 db bd dd bd b9 bc
       -0.04185567 -0.06057512 -0.10722531 -0.022673542
000240 ed fe 57 bd 21 4b 31 3d 76 6e 3a be 24 56 d1 bd
       -0.05273335 0.04328454 -0.182062 -0.10221508
000250 c2 3f ec bc 5a 26 02 3d 1a 74 f3 3d 44 17 2f be
       -0.028838996 0.031774856 0.11887379 -0.17098719
000260 d9 22 08 3e 6e ee 02 3e 6e 53 42 3d 83 83 0b be
       0.13294543 0.12786266 0.047442846 -0.13624386
000270 ae 83 54 bd 17 00 53 bd 39 7d 74 bc 9d 9e db bc
       -0.051883392 -0.051513758 -0.0149224335 -0.026809031
000280 85 20 11 3e 44 35 49 bd 09 38 80 3d d4 0c 00 3d
       0.14172561 -0.049123064 0.06260688 0.031262234
000290 e2 50 90 3d 9f 93 ce 3a b6 28 ef bd ee 8c 90 3d
       0.07046677 0.0015760547 -0.11677687 0.0705813
0002a0 24 25 7a bd 54 88 a1 3d 62 1e 5f 3d f2 0e 26 be
       -0.061070576 0.07887331 0.054472335 -0.16216639
0002b0 8e bb b1 bd 77 19 3d bd 22 b5 98 3d d3 82 36 bd
       -0.08678351 -0.046166863 0.07456423 -0.044558357
0002c0 cb dc d4 3b d1 84 fe bd 14 1a 1d 3d 9c 1c da 3d
       0.006496047 -0.124276765 0.03835495 0.10649988
0002d0 f2 41 16 be 08 93 d4 bd e4 2f 3a 3d fc d2 e9 3d
       -0.14673594 -0.103796065 0.04545583 0.11417195
0002e0 28 eb 55 3d 75 d6 b4 3d 27 95 30 be 83 c5 8a bd
       0.052226216 0.08829967 -0.17244397 -0.067759536
0002f0 8f 4e 17 3e 8c 31 44 3d 9c 53 11 be 33 4b 01 be
       0.14776061 0.047898814 -0.1419205 -0.12626342
000300 22 8d 0b ba b0 97 7a 3d a3 2e ad bd 42 75 31 bd
       -0.00053234596 0.061179817 -0.08456161 -0.043324716
000310 b5 0d 22 be 3f 99 c7 3d fc 5c 13 3e c7 16 89 bd
       -0.15825541 0.09746026 0.1439094 -0.066937976
000320 3c 80 eb 3c 9e be 8d bd 01 2e 07 be b3 51 22 3e
       0.02874767 -0.06921123 -0.13201143 0.15851478
000330 3f 7d be bb f4 a7 12 3d dd b9 a1 3d 91 ad aa 3c
       -0.0058132703 0.035804704 0.07896779 0.020834716
000340 c1 a0 e1 3d 58 bf 01 3e 5f 3c 33 be 90 bc 08 be
       0.110169895 0.12670648 -0.17503498 -0.13353181
000350 74 40 7a bc 2a 62 15 bc 8f 0b c7 bc 03 73 0b be
       -0.015274156 -0.009117642 -0.024297504 -0.13618092
000360 93 46 8b bc b3 0b cc 3d 02 f0 40 3d dd 5c 10 be
       -0.017001426 0.09963169 0.04710389 -0.14097925
000370 64 2a a1 3d e0 33 ee 3b dd 6a b3 bb 82 be 46 be
       0.078694135 0.0072693676 -0.0054753856 -0.1940861
000380 0a 72 d6 3d e0 46 3f 3c 48 34 0a 3e 80 5e f3 bc
       0.1047097 0.011674613 0.13496506 -0.029708147
000390 00 66 c2 3c fa d2 30 bd 3b 1b 39 3d 0f 02 16 3e
       0.023730278 -0.043169953 0.045191985 0.14649223
0003a0 5e ed c2 bd d3 3f 91 bb f8 5a ef b9 eb 89 2c be
       -0.095179304 -0.0044326573 -0.0004565341 -0.16849487
0003b0 cc f7 00 be 66 d4 e6 bd 9d c1 84 bd 10 4d 6c 3d
       -0.12594527 -0.112709805 -0.06482241 0.05769068
0003c0 58 f5 32 bd 4f 54 02 be df a0 cb 3c dd 91 d5 bc
       -0.04369101 -0.12727474 0.024856983 -0.02607053
0003d0 0c 86 85 3d 57 96 1f 3c 8b 7e 08 bd a5 b8 17 3e
       0.06519708 0.009740434 -0.033323806 0.1481653
0003e0 05 ff 2c be e6 83 a7 ba d5 19 f7 3c 54 ce bf bc
       -0.16894157 -0.0012780398 0.030163685 -0.023413815
0003f0 68 e2 15 3c 54 74 fe bd 4e 42 9c bd b4 d3 8b bd
       0.009148218 -0.124245316 -0.07629834 -0.068274885

moe.experts.0.2.bias f4 [128]
000000 44 81 e8 3d c1 98 58 bd 3b 24 a0 3d 3c 35 7f 3c
       0.113527805 -0.052880052 0.078194104 0.015576657
000010 86 ea 39 bd 46 6b 73 3d 56 c9 bb 3c 94 79 ee bc
       -0.045389675 0.059428476 0.022923153 -0.029110707
000020 1c e4 88 bd 17 ed 78 3c ce 30 d5 bb 42 3f bc 3d
       -0.066841334 0.015193245 -0.006506062 0.09191753
000030 3e bc 4d 3d 71 0e 2e bb 6a b9 f3 bd 9a 80 89 bc
       0.05022835 -0.00265589 -0.11900599 -0.016784955
000040 5c c0 88 bd 61 de 6b 3d 60 73 fb 3d ee 4b d6 3d
       -0.06677315 0.057585124 0.122778654 0.10463701
000050 59 73 af bd 38 79 54 bc 82 92 d6 bc 2d 20 c2 bb
       -0.08566923 -0.012968354 -0.026192907 -0.005924246
000060 18 6e 29 bd 8c 7f 00 3b ca 55 e9 bd 9d e5 9f 3c
       -0.04136476 0.0019607274 -0.11393316 0.019518668
000070 b3 5a 9a bd f8 c2 a6 3d b2 4d 4d 3b 7c 8e bf 3d
       -0.07536831 0.08142656 0.0031326828 0.093533486
000080 76 a9 82 3c 7d 90 e1 bd e4 5f 1c bd a4 cf 62 bd
       0.015949946 -0.11013887 -0.038177386 -0.055373803
000090 91 de 02 3e bc c3 b5 bd fe dc b2 3d 62 87 a9 bd
       0.12780215 -0.08875224 0.08733557 -0.08277775
0000a0 b7 20 8d 3b a7 1a 12 3d 1b 5b 9c 3d 93 e0 38 3c
       0.0043068784 0.03566995 0.076345645 0.011284011
0000b0 5f c6 d7 bd ff a3 c2 3d 20 09 f7 3d 91 5d 45 3d
       -0.10535883 0.09503936 0.12062287 0.048184935
0000c0 0f 2e f3 3d fd 62 77 bc 5f bc bd bd 9e 5a f8 bd
       0.11874019 -0.015099284 -0.092644446 -0.12126659
0000d0 2c 7e d3 3d c0 79 98 3d 81 eb 65 3d d6 0e af bd
       0.103268 0.07445097 0.056132797 -0.085477516
0000e0 b0 dd c2 3c 6b 2e b9 3c 72 33 16 bc 67 41 4d 3d
       0.02378735 0.022605142 -0.009167539 0.0501112
0000f0 5e 4f 0d bd c8 1b 9e bb d4 5c de 3c 01 d2 fe 3c
       -0.03449952 -0.004825089 0.027143873 0.031105997
000100 9b ed a2 bd 1e ed 5f bd 07 13 47 bc 44 86 92 3c
       -0.07955476 -0.054669492 -0.012150533 0.017886288
000110 cb 7b 9b 3d 86 6a 48 bd ea b7 5e bd df c0 18 3d
       0.07591971 -0.048929714 -0.054374613 0.03729331
000120 27 2d df ba d0 fa 85 3d 84 98 77 bd 26 d7 d9 3d
       -0.0017027006 0.06541979 -0.060448185 0.106367394
000130 6c d3 c5 bd c9 8c af bd 11 0b d3 bd e5 78 a8 3d
       -0.09659466 -0.085717745 -0.10304845 0.08226184
000140 19 30 c8 bd 1e bd cb 3d 13 32 d5 bc da 96 ad bd
       -0.09774799 0.099481806 -0.026024854 -0.08476038
000150 4a db 09 be a3 51 ac 3d 85 21 46 bd 01 0b 47 bd
       -0.13462558 0.084140085 -0.04837181 -0.04859448
000160 10 cd ad bd 3c f6 ca bd 7f 28 f0 bd d8 b6 a8 bd
       -0.08486378 -0.09910247 -0.11726474 -0.08238
000170 a3 8c 0e 3d 47 4b b9 3d 28 53 6d 3b a9 f8 d3 bd
       0.03480209 0.09047561 0.0036212895 -0.103501625
000180 f2 a0 a6 ba 28 bd c4 bd 9b 3c d0 3d 6a 55 89 bd
       -0.001271276 -0.09606391 0.101678096 -0.067057446
000190 2c 73 a1 bd a0 e1 f6 3d d3 62 f4 bd 65 00 bf 3d
       -0.078832954 0.12054753 -0.11932912 0.09326247
0001a0 60 e3 38 3d 11 08 cb 3d 6a 64 7d 3d 88 c4 c9 3c
       0.045138717 0.09913648 0.06186334 0.024629846
0001b0 97 ea 4d bd ba 20 e6 3d 02 b4 43 bd fb cf 9b 3d
       -0.05027255 0.11236711 -0.04777909 0.076080285
0001c0 7e ef ac bd 73 2b 33 3d ce 4d 0a 3d 8f 55 cc bc
       -0.08444117 0.04374261 0.033765607 -0.024943141
0001d0 c6 d4 10 bc 8f 94 a8 3b 9a be d3 3d b4 f0 6a bd
       -0.008839792 0.0051446627 0.10339089 -0.05735846
0001e0 cd 49 c1 bd ab 2e ce bc bd 36 8d 3d be f8 1e 3d
       -0.094379045 -0.025168737 0.06895206 0.038811438
0001f0 06 3c c4 bd f8 a3 b5 3d 6f e4 ea 3d a4 59 1e bd
       -0.09581761 0.08869165 0.114693515 -0.038659707

moe.experts.1.0.weight f4 [64, 128]
000000 89 2a 56 3d ee 76 95 3d 45 d0 19 3d d1 a5 59 3c
       0.05228666 0.07298075 0.037552137 0.013284163
000010 c1 37 b4 bd e9 7e 6a bd 39 97 3f 3d 29 3d 98 3d
       -0.08799697 -0.057249937 0.046775077 0.074335404
000020 f1 6d 8e bd 67 ec 6d bd 7b c7 45 3b 34 bc 01 bd
       -0.069545634 -0.05808678 0.0030178714 -0.031673625
000030 39 c5 89 bc 78 80 15 3d 8a 3e 9d 3c 7b fa 44 bd
       -0.016817676 0.03649947 0.01919486 -0.04809044
000040 2a 9b 02 bd cd bd 1b bd fa 85 c2 bd 1e b8 d4 ba
       -0.031886257 -0.038022805 -0.0949821 -0.0016229188
000050 cf d6 63 bd 6e d8 1e bc 2c 05 c7 3d 30 02 e5 bc
       -0.05562478 -0.009695156 0.09717783 -0.027955145
000060 a5 78 29 bd 58 18 1d 3d 03 bd 33 3d 6a 32 63 bd
       -0.04137482 0.038353294 0.043881427 -0.055468
000070 7f 93 94 bb 78 63 92 3b 1d 46 89 bd fa 91 59 3c
       -0.0045341845 0.004467424 -0.06702826 0.013279432
000080 1c 64 0f bd 78 bd c5 3d a9 e2 0b bc ab 42 66 3b
       -0.03500758 0.09655279 -0.008537927 0.0035134952
000090 1d 92 fd 3c e7 c7 79 3d 0d 51 9a 3d d6 a4 d9 bd
       0.030953461 0.060981657 0.075349905 -0.10627143
0000a0 1e eb 4f 3c ba 35 6c bc 81 fa bb 3c 14 42 aa bb
       0.012690334 -0.014417106 0.022946598 -0.0051958654
0000b0 8e 87 a5 bd b3 a8 be bd ca d6 cf 3d 9a e2 da 3d
       -0.08082496 -0.093095206 0.1014839 0.10687752
0000c0 b6 d0 76 3d 4b f6 6e bd 7c 79 1d 3d b5 86 89 3d
       0.060257636 -0.058340352 0.038445935 0.067151465
0000d0 8d 3f b5 bd 14 d3 7b 3c bd 38 86 3d 1e 11 8b bc
       -0.08850012 0.015370149 0.06553791 -0.016975936
0000e0 32 46 0a 3d b7 dc 52 3b e9 99 a0 3b 0d a7 ad bd
       0.03375835 0.0032175013 0.00490116 -0.08479128
0000f0 18 d0 41 3c 39 94 c3 3d 39 5f b5 3d 49 de 0e bd
       0.011829399 0.095497556 0.08856053 -0.034879956
000100 e3 3c 9a bc d8 51 8b 3d c4 db e6 39 bb 56 14 bd
       -0.018827861 0.0680272 0.00044032757 -0.036215525
000110 c7 23 33 bc 45 53 dd 3c 2f b4 07 3d 10 8a b9 bc
       -0.010933823 0.027017245 0.03313082 -0.022648841
000120 52 5a 7c bd 6a 55 c5 bd a7 ec b1 3c a2 4a ad bd
       -0.061609574 -0.09635432 0.02171929 -0.08461501
000130 67 59 dd bc cb 8d ba 3d f1 d4 84 bd 66 1a a5 bd
       -0.02702017 0.09109076 -0.06485928 -0.08061676
000140 85 2d 16 3d 13 95 2e 3c 0b 1d ae bc ab 82 d7 3d
       0.036664505 0.010655659 -0.021254083 0.1052297
000150 84 86 b4 bc 2c 0b 01 bd da 80 0e 3c 5a fc 34 bd
       -0.022036798 -0.031504795 0.008697713 -0.044185974
000160 b3 c3 34 bd 20 40 78 3d 1d fd 33 bc 3b 62 61 3d
       -0.044131946 0.06060803 -0.01098564 0.05502532
000170 8f 0f 4c bd b0 ba 46 3d 4f 2d 44 bd 4f 5a ac 3c
       -0.049819525 0.048517883 -0.047894772 0.021039156
000180 9f ee 98 bd a8 28 cb 3b fc 7c 27 3d 83 1d 2e 3d
       -0.07467388 0.006199915 0.04089068 0.042508613
000190 56 4e 9e 3c 5a ae 28 bd 4f c1 5d 3c 2f e7 9f bd
       0.019324463 -0.0411819 0.013534858 -0.07807767
0001a0 a1 fc 95 3c f3 3d 88 3c a4 4d a4 3d 21 93 69 bd
       0.01830894 0.016631102 0.08022621 -0.05702508
0001b0 ce 10 36 3d ab d6 00 bd eb 33 6b 3c c4 16 af 3b
       0.04444962 -0.031454723 0.01435564 0.00534329
0001c0 55 da 00 bc d7 ff 25 3d 14 d0 a9 3d 61 6b 08 3d
       -0.007864554 0.04052719 0.08291641 0.03330553
0001d0 13 dc 1e 3d c6 e0 8d bd 03 55 9e 3c 9d 7c a0 bd
       0.038784098 -0.06927638 0.019327646 -0.07836268
0001e0 c5 59 f4 3d a2 c6 36 3c ef 99 d0 bd f6 61 42 3d
       0.11931185 0.011155756 -0.101856105 0.047456704
0001f0 c4 31 a0 bb ca bc 8c 3d 69 5b 63 b9 c8 47 87 3d
       -0.004888745 0.06871946 -0.0002168246 0.06605488
000200 a1 af a3 3c 1f 00 81 3d 15 ff 0d 3d 1e 22 44 bd
       0.019981207 0.06298851 0.034667093 -0.0478841
000210 f8 56 fc 3d f1 c4 3f bd de 92 30 bd c7 7f 6d 3d
       0.123212755 -0.046818677 -0.043108813 0.057983186
000220 71 fe 8f bd a7 37 c3 3c d4 0d 82 3d 1a fd 55 bd
       -0.07030953 0.023830248 0.06350294 -0.05224333
000230 99 c4 30 3d b3 2e 44 bd c1 68 a1 bd 85 7e 95 bd
       0.04315624 -0.0478961 -0.07881308 -0.07299522
000240 4e 19 8f 3c 65 20 6f bd e8 80 8e bd 24 8b af bd
       0.01746812 -0.058380503 -0.06958181 -0.08571461
000250 c1 32 2f 3d 6f bc de bd 51 a0 f1 bc 24 7b 9a 3d
       0.042773012 -0.108757846 -0.02949539 0.075430185
000260 86 9f 33 3d 87 d2 a8 bc 4a a5 3b 3d c4 13 22 3d
       0.043853305 -0.0206082 0.04581193 0.03956963
000270 42 1f 17 3c a3 e1 b8 3d d2 84 41 bc ad c2 1f bc
       0.009223761 0.09027412 -0.011811452 -0.009751004
000280 9b e2 42 bd 98 57 0f 3c 0f 59 99 bd 84 63 7a bc
       -0.04757939 0.008748911 -0.0748769 -0.015282515
000290 f0 09 31 3d e0 ba de bc 9b a0 2f bd 7f 60 68 bd
       0.043222368 -0.027188718 -0.042877775 -0.05673265
0002a0 9c b2 06 3d 03 e3 5c 3d 86 60 30 3d 39 d0 76 3d
       0.03288518 0.053927433 0.043060802 0.06025717
0002b0 fe e9 e4 bd fb 34 c0 bc fe 71 9e 3d e9 94 65 bd
       -0.11177443 -0.023462763 0.07736586 -0.056050215
0002c0 38 4f 93 3d 9f c2 ed bc 91 42 b0 bd 32 9e d1 bc
       0.07192844 -0.029023467 -0.086064465 -0.025588129
0002d0 07 a3 71 bd f7 87 05 be c4 4a 82 bd 8e cf 36 bd
       -0.058993366 -0.13040148 -0.06361917 -0.044631533
0002e0 ba b4 83 bc 9d 43 ad bd ad 8a 50 3c 96 0f 06 bb
       -0.016077388 -0.08460162 0.012728375 -0.0020456067
0002f0 81 43 17 3d 86 f8 bb 3d 2f ae e5 3d 4a b7 4e bd
       0.03692961 0.091782615 0.112148635 -0.050467767
000300 fd c1 9b 3d d9 c1 9a bc f1 11 a1 3d 5e 50 10 3b
       0.0760536 -0.018891262 0.0786475 0.0022020559
000310 0b 24 d4 bd 25 82 48 bd 6e 5a 27 bd 1a 4d 38 3d
       -0.10358437 -0.04895224 -0.040857725 0.044995405
000320 84 27 05 3d 4b a0 37 bd 08 3b 8c bd 74 82 57 bd
       0.03250839 -0.0448306 -0.06847197 -0.052614644
000330 28 28 95 3d 88 bf 85 3c 35 69 a0 bd b9 32 e3 bc
       0.0728305 0.01632668 -0.07832567 -0.027734147
000340 21 ab 4f bb 59 e7 14 bd 6a fa b6 bd c7 1d 04 bd
       -0.0031687694 -0.036353443 -0.089344814 -0.03225496
000350 13 6b 00 be e6 47 c1 3d 12 37 94 3c 89 f9 48 ba
       -0.12540846 0.09437542 0.018092666 -0.0007666578
000360 a4 48 e8 bc b9 56 7e 3d 23 47 a1 bc 0d 90 b5 bd
       -0.02835495 0.062094424 -0.019687241 -0.08865366
000370 4f b0 d2 3d 27 af b6 3c 97 81 d9 bc ed aa a9 bd
       0.102875344 0.022300316 -0.026551051 -0.08284555
000380 0c c8 e8 3c cf 0c 3e bd 00 34 8a bd f7 f4 04 be
       0.028415702 -0.046398934 -0.067481995 -0.12984072
000390 49 ef c0 bd 2e c1 3e 3d d2 b6 78 bc 6d 14 5b 3d
       -0.0942064 0.04657095 -0.0151803065 0.053486276
0003a0 bf c3 b0 3c 90 e2 dc 3c 1f cf 20 bc 2e 02 10 bd
       0.021577714 0.026963502 -0.0098150065 -0.03515833
0003b0 bd a9 87 3d 59 f9 40 bc b7 94 23 bd b9 50 95 bb
       0.06624172 -0.011778199 -0.039936747 -0.004556742
0003c0 aa 0b 11 bd 25 5e aa 3d 8f a6 2e bd 74 10 94 3d
       -0.035411514 0.08318738 -0.04263931 0.07229701
0003d0 f5 46 a4 bd 2c 62 54 3d 0a c4 98 3d b7 87 94 bd
       -0.080213465 0.051851436 0.074592665 -0.07252448
0003e0 b4 fa 05 3d b3 52 59 bc c2 a3 67 bd d7 39 14 bd
       0.032709792 -0.013264346 -0.056552656 -0.036187973
0003f0 23 81 45 bd d0 a8 30 3d 35 66 a8 3d 33 55 bb bc
       -0.048218857 0.043129742 0.082226194 -0.022867775

moe.experts.1.0.bias f4 [64]
000000 47 1b b3 3c f5 cb b5 3c 4a c3 27 3c c2 cd b5 bb
       0.021863593 0.02219198 0.010239432 -0.00554821
000010 3d f2 14 bd 7f dc 36 bd 70 1b 74 3d 81 c8 93 3c
       -0.03636383 -0.044643875 0.05959648 0.018039944
000020 68 0e 01 3d f2 b0 d8 bc 2f 5f 2b bb 4b 00 98 bc
       0.03150788 -0.026451562 -0.0026149263 -0.018554827
000030 d5 ed 94 bc 4d d1 a4 bd 25 cb 6e 3d 9d 8c 3d bb
       -0.018179813 -0.080477335 0.058299202 -0.0028922923
000040 91 f2 90 3c df ee 32 3d 0a fe 4d 3d 66 0d b3 3d
       0.01769379 0.043684836 0.0502911 0.0874279
000050 1b ba ea 3c 80 8f ca bb 72 90 c0 bc 9f 8b 29 3d
       0.028653195 -0.0061816573 -0.023506377 0.04139292
000060 39 9f 1a bd d1 8c 34 3d d2 0d 80 3d fb e5 10 3d
       -0.037749503 0.044079605 0.06252636 0.035375576
000070 25 42 dd bc ed 9f b1 3c b0 c3 89 bd 7b a5 4e bd
       -0.02700908 0.021682704 -0.067267776 -0.050450783
000080 7e 5f 6e bb 00 1c ac bc 54 33 80 bd 30 64 6d bc
       -0.0036372836 -0.021009445 -0.0625979 -0.014489219
000090 6e eb 0b bd 38 8f 27 3d 15 64 bc 3d 61 0d 03 bc
       -0.03416007 0.04090807 0.09198777 -0.007998795
0000a0 5e f6 df 3d d5 44 b8 bc d7 7a b2 3c 1e d3 d0 3d
       0.10935663 -0.02249376 0.02178709 0.101965174
0000b0 53 40 6f 3a ec a7 ba 3d 10 bd c3 3d 1b be af 3d
       0.00091267115 0.0911406 0.09557545 0.085811816
0000c0 17 bd a4 3d 4d 80 90 3d 94 fe 83 bd 44 06 8f bd
       0.080438785 0.070557214 -0.06445041 -0.06983617
0000d0 10 1a 72 3d e4 78 90 3d ea 22 95 3d e3 b0 e5 bb
       0.059106886 0.07054308 0.0728205 -0.007009612
0000e0 44 25 18 3b 9e dd 89 3d 0b 94 f6 3c ea bf 85 bb
       0.0023215571 0.06731723 0.03009989 -0.004081716
0000f0 e1 00 8d 3d 93 11 ac 3d e8 4a 13 bc ea 91 c9 bc
       0.06884933 0.084017895 -0.008990027 -0.02460571

moe.experts.1.2.weight f4 [128, 64]
000000 7a 5d d5 3d f9 c8 36 3c b4 78 06 3e bf 9c 9f bd
       0.1041822 0.011156314 0.13131982 -0.07793569
000010 ba ab b1 bc 36 e1 c3 bb ae 6e f2 3d 20 7b b3 bd
       -0.02168833 -0.005977775 0.11837517 -0.087637186
000020 d9 df fe 3d 81 47 32 bd 8d eb 6d bc 65 0c 1e 3d
       0.12445039 -0.043525223 -0.014521492 0.03858604
000030 72 fc 07 3e 24 88 fe 3d 50 a3 80 3d 3a 64 7d 3c
       0.13279894 0.124283105 0.062811494 0.01546579
000040 e8 15 59 bc c5 f6 91 bd d2 ed b3 bd 47 04 04 bd
       -0.013249852 -0.07127146 -0.08785595 -0.03223064
000050 99 2e f9 bc 67 7e 6f 3c f9 7c 1c 3e 07 e6 04 3d
       -0.030417727 0.014617539 0.15282048 0.032445934
000060 6f 9a 2e bd ec 50 00 bd f1 43 c7 3d c4 89 fa bc
       -0.042627748 -0.031327173 0.09729756 -0.03058327
000070 35 65 d6 3d 2f 04 f2 3d ea be 32 bd 56 90 ee 3b
       0.104685225 0.11817204 -0.0436391 0.00728039
000080 f2 39 21 3d 72 b4 d9 bd 9c b4 b8 bd db 8b 61 3d
       0.0393619 -0.1063012 -0.090188235 0.055065017
000090 87 38 d4 bd 4e d9 ae 3d 89 dc 31 be 07 0d b0 3d
       -0.10362344 0.08537541 -0.17369284 0.08596235
0000a0 13 96 a0 3d 84 61 f7 3d 14 b6 aa 3c 2b 2e 10 be
       0.078411244 0.120791465 0.020838775 -0.14080112
0000b0 6c 60 4a 3d 6f 23 83 3d cb d9 b5 3d 3b 9a 80 3d
       0.04940836 0.06403243 0.08879431 0.06279417
0000c0 1c e9 6e 3c 45 cc b1 3d 2a 10 c3 3d 9a 6c 5e bd
       0.014581945 0.086815394 0.095245674 -0.05430279
0000d0 f7 24 36 bd f5 22 1d bd b9 31 a8 3d 4f 4e 10 be
       -0.044468846 -0.038363416 0.08212609 -0.14092372
0000e0 bf f7 0d 3e 77 03 3c bd 42 1c f1 b9 24 fa c9 3d
       0.13864039 -0.04590174 -0.00045988156 0.09862164
0000f0 3c bf c5 bc d4 d0 54 3d c6 3f ec bd ed 90 84 bd
       -0.02413904 0.051956967 -0.11535601 -0.06472955
000100 fb 2f 81 bc e8 99 b2 3d 53 1d 3d 3d 31 44 17 3e
       -0.01576995 0.087207615 0.046170544 0.14772107
000110 2e 64 cc bd b3 7b 43 be a8 cd 86 3d c6 d2 2a bc
       -0.09980045 -0.19090156 0.065821946 -0.010426229
000120 40 52 d3 bd e7 a3 8b 3c 67 28 7b bd 5c 7f 1b 3e
       -0.10318422 0.017045928 -0.061317828 0.15185302
000130 52 b8 d0 3d 8b cb 1f 3d 50 14 40 bd 3c 43 24 be
       0.10191406 0.039012473 -0.04689437 -0.16041273
000140 85 89 07 ba 88 1b ac bd ea 9a 7c 3d 93 97 11 bd
       -0.00051703333 -0.08403689 0.061671175 -0.035544943
000150 f5 05 1a bd 50 b6 79 bc 83 ae f0 bc aa 42 9b bc
       -0.037603337 -0.015241221 -0.029380089 -0.018952686
000160 6a fa 39 bd b6 e8 a0 3d 82 b6 2b 3d 37 52 53 3d
       -0.04540483 0.07856886 0.0419221 0.051592078
000170 05 98 39 3e 71 c3 fa 3c 0a 7c 2f 3e c2 57 20 be
       0.18124397 0.030610772 0.17137161 -0.15658477
000180 fd fd 13 3e 5e e6 03 be 82 8b 0b 3e ad 1a 22 3e
       0.14452358 -0.12880847 0.13627437 0.15830489
000190 df 1f 28 3d b8 d3 63 3d 6d b3 db bd 21 15 89 3d
       0.04104602 0.055621833 -0.10727582 0.06693483
0001a0 e8 87 72 3d 0d c2 33 3e 3d 6b 49 be 27 4b ce bd
       0.05921164 0.17554493 -0.19669814 -0.10072928
0001b0 6f 2a ef 3d dd d9 25 bc 1e 51 6d bd 5d e9 31 bc
       0.116780154 -0.010122743 -0.057938688 -0.010858861
0001c0 fd e5 f9 3d ea 1b bb bd f7 ce d6 3d d5 f5 6e bc
       0.1220207 -0.091361836 0.10488694 -0.014584978
0001d0 27 fe 79 bd b3 6b 88 3d 76 31 46 bd 59 86 0f 3d
       -0.061033394 0.06661167 -0.048387013 0.035040233
0001e0 4f 71 27 bc 8a a4 d4 3c 6a 18 2e 3c 36 d4 1e bc
       -0.010219886 0.025957365 0.010625938 -0.00969415
0001f0 1a c5 0f 3e 09 41 8a bd 92 cd eb 3c c2 fc 0b 3e
       0.14040032 -0.06750686 0.028784547 0.13670638
000200 8b ac ab 3d ea 51 6e bc c8 0d f8 39 f8 29 99 3d
       0.08382519 -0.014545897 0.00047312514 0.07478708
000210 92 83 dd bd c3 bf 06 bd 58 19 19 3e c7 eb 04 be
       -0.10816111 -0.032897722 0.14951074 -0.12980567
000220 9b fe 8c bd 6b cd ba bd b4 e8 ec 3b c4 dc b4 3c
       -0.068845 -0.091212116 0.007229889 0.022077926
000230 62 bc fb bc 7c 93 86 3c 01 d3 df bd 54 24 5e 3d
       -0.030729476 0.016427748 -0.10928918 0.054233864
000240 bb d2 bd bd ad 68 07 bd ef 7c ba 3b bd 0f 39 3d
       -0.09268709 -0.03305881 0.005691163 0.045181025
000250 a0 c5 88 bd 73 48 0c 3c 7e 16 00 3e 53 06 3a 3d
       -0.06678319 0.008562195 0.1250858 0.045416187
000260 70 5d 1f 3e 94 88 cf 3a 79 51 93 bc 86 2c c8 3d
       0.15562987 0.001583355 -0.017983185 0.09774117
000270 a6 82 ba 3c 05 8b 66 bd cf 4e 8e bd ab 08 ee bd
       0.022767376 -0.056284923 -0.06948625 -0.11622747
000280 d9 65 08 bc cd 3d e0 bd 54 31 9c 3d 87 f7 5c bd
       -0.008325064 -0.109492876 0.07626596 -0.053946998
000290 2e 65 24 bd e4 53 69 3d 16 66 d5 bd 78 2c 97 3d
       -0.040135555 0.05696477 -0.10419862 0.073815286
0002a0 18 b1 e4 bc 01 e9 99 3d 47 23 98 bd 3b 21 bb bd
       -0.027916476 0.07515145 -0.074286036 -0.091371976
0002b0 88 6e f2 3d 6a a7 17 be 67 40 12 3e 68 01 66 3d
       0.118374884 -0.14809957 0.1428238 0.056153685
0002c0 54 97 72 3d f1 da a6 3b e4 97 a0 3c cc 87 41 bc
       0.05922635 0.005092018 0.019603677 -0.011812162
0002d0 ed 1d d1 3d da 53 59 bc 8a 58 81 3d 07 58 2f be
       0.10210786 -0.013264621 0.063157156 -0.17123424
0002e0 77 dd 74 bd 71 03 e6 3d 6f ad 9e bd 2a 1a 25 bd
       -0.059781518 0.11231125 -0.077479236 -0.040308155
0002f0 ca a0 fd 3d 02 46 83 bd 4f b6 e8 3c 66 8d 21 3e
       0.12384184 -0.06409837 0.028407244 0.15776595
000300 e1 2d e6 bc a1 92 88 bd c6 6d a0 3d 3e 08 ac bd
       -0.028098049 -0.06668592 0.078334376 -0.084000096
000310 ad 4b 22 3d ec 11 c8 bd 6d 8f 75 bd 62 08 24 be
       0.03962295 -0.09769043 -0.059951235 -0.16018823
000320 96 54 3d 3d 9b b9 ff bc 36 02 99 b9 70 36 df 3d
       0.046223246 -0.031216433 -0.0002918408 0.10899055
000330 6e ac 31 3e 49 68 8b bd 43 44 76 bd b4 77 a9 bd
       0.17350933 -0.06807 -0.060123693 -0.08274785
000340 a8 e4 08 be 85 92 2a be 75 5a 62 3d 33 ea af bd
       -0.13368475 -0.16657455 0.055262048 -0.08589592
000350 2c 84 11 be e4 29 fe 3c 4c 24 0d 3e 2b 5d e9 bb
       -0.14210576 0.031025834 0.13783377 -0.007121702
000360 8c 1f 66 bd d2 c1 e2 3d 39 0e 1f 3e e9 da 0f 3c
       -0.05618243 0.110721245 0.1553277 0.00878022
000370 a3 81 bb bc 66 3d 2c 3c 37 58 92 3d 2d 76 25 bd
       -0.022888964 0.010512685 0.07145732 -0.040395904
000380 fc 50 82 bc c0 73 00 bd ab e0 b8 bd 82 ed df 3d
       -0.015907757 -0.031360388 -0.09027227 0.10933973
000390 4c 2f 66 bc e2 9b b4 3c 7b a1 ea bd dd 69 ee 3d
       -0.014049362 0.022046987 -0.11456581 0.116412856
0003a0 a8 e3 a2 3b 5f bf 88 bd 03 39 6c bd 42 fc 80 bd
       0.0049709864 -0.06677126 -0.057671558 -0.06298114
0003b0 6a c8 09 bd 12 34 fd bd 99 a6 75 3d e1 73 a4 3d
       -0.033638395 -0.12363447 0.059973333 0.08029915
0003c0 4a 95 d4 3d 81 b2 11 be ad c2 2e 3d fd 9c f5 3d
       0.10380037 -0.1422825 0.042666126 0.11992834
0003d0 b1 fc 11 3d 91 e6 a1 3d c7 11 be bc b5 9a 2c be
       0.035641376 0.07905305 -0.023201836 -0.16855891
0003e0 38 75 72 bb 0e 04 a0 bc 3a 36 1c 3d 09 8a cc 3c
       -0.0036996137 -0.019533183 0.038137652 0.024968164
0003f0 9a e6 92 bc c9 98 15 be 8e 7e 00 be 6c 76 e1 bc
       -0.017932225 -0.14609064 -0.12548277 -0.027522288

moe.experts.1.2.bias f4 [128]
000000 04 f7 7a bd 40 ad b4 bd 6a 52 c6 3c c9 35 e1 bc
       -0.06127073 -0.08822107 0.02420922 -0.027491467
000010 79 91 d4 3d a7 21 07 be 34 bf 20 3d 9c 93 4c 3d
       0.10379309 -0.13196431 0.039244846 0.04994546
000020 db 74 8e bc e2 6d a5 3c 35 c7 c8 bd a6 ac 09 bc
       -0.017389705 0.020193998 -0.09803621 -0.008402979
000030 0e f1 0a bc 9b fb 33 bd 79 85 dd bd 6c 78 0b bd
       -0.0084803235 -0.04394112 -0.108164735 -0.03405039
000040 47 e2 91 3d 26 d5 98 3d a9 f0 e1 bd 33 50 ac 3d
       0.07123237 0.0746253 -0.110322304 0.08413734
000050 5b 26 94 bc 3c 2c 00 3e 25 22 db 3d a2 a5 e6 bc
       -0.018084696 0.12516874 0.10699872 -0.028155152
000060 11 1f 92 3d a4 b7 84 3d b4 c5 9f 3d fa d6 da 3d
       0.07134832 0.06480339 0.07801381 0.10685535
000070 a4 02 d5 3b b1 51 94 bd 57 7e a3 bd 2d 70 3c 3d
       0.006500559 -0.07242144 -0.07983082 0.046005417
000080 73 cf 8a bd e3 b4 c8 3c 14 86 8a bd cb f1 4f 3d
       -0.06777849 0.024500316 -0.067638546 0.0507677
000090 a7 75 a1 3c 4e 0b e7 bd 34 e7 0d be 64 e1 be 3c
       0.019709421 -0.11281453 -0.13857728 0.023300834
0000a0 45 6d 76 3d d0 ae 74 bd bc 5d 8a 3d 66 64 8d bc
       0.0601628 -0.059737027 0.0675616 -0.017259788
0000b0 3e 35 06 be 1e 6a d8 3d fe 09 a7 3c 58 9f c5 3d
       -0.13106248 0.10567115 0.020390507 0.09649533
0000c0 a1 bd a3 bb e3 3c 67 3c 12 df 15 3d 7e cc 3c bd
       -0.0049969708 0.014113638 0.03658969 -0.046093456
0000d0 53 d9 df 3d 10 e9 ea bc 90 26 8e bd b5 26 bc 3d
       0.10930123 -0.028675586 -0.06940949 0.0918707
0000e0 fe 7f 3c bd 97 f8 b2 ba 40 ad 34 bd 12 7c 82 3d
       -0.0460205 -0.0013654408 -0.044110537 0.06371321
0000f0 72 f6 f6 3d db a7 be 3c 38 eb ab 3d d1 78 b0 bd
       0.120587245 0.0232734 0.08394474 -0.08616794
000100 73 65 d7 bd c9 78 e2 3d 29 3d 07 be b2 2b b9 3d
       -0.10517397 0.11058194 -0.13206924 0.09041537
000110 a5 d6 bb 3d 74 4d a1 3b 65 d9 bb bd 69 bb 8f bc
       0.091717996 0.004922563 -0.09172324 -0.017545419
000120 46 bd 91 bd 83 6b 00 3c 2c e2 c6 3d 5d 9d 09 3e
       -0.07116179 0.007838133 0.097111076 0.13438936
000130 1a 6d 05 be 50 bd e9 bd 74 b8 e8 bd e6 08 24 3b
       -0.130299 -0.114130616 -0.11363307 0.0025029718
000140 38 d6 27 3d 18 9e 51 bc a1 12 17 3d 5a 89 cc bd
       0.04097578 -0.01279404 0.036883 -0.09987135
000150 c2 06 a9 3d 81 ca 01 bc 9f 5f b7 3d ab 1b 44 3c
       0.08253242 -0.007921816 0.08953785 0.011969487
000160 5f b7 3a bd 5c 8b 92 3d 97 44 35 3d c9 fb e2 bc
       -0.045585033 0.07155487 0.044254865 -0.027707951
000170 d4 40 c5 3d a9 ed f4 3d bb 6f c0 3d 2b 4e 09 be
       0.096315056 0.119593926 0.09396311 -0.13408725
000180 11 ed cf bc 70 36 ef 3d e2 7b ed bd 65 c9 a7 3d
       -0.025381597 0.11680305 -0.115958944 0.0819271
000190 85 dd 1c bd 68 76 f3 3d 37 23 7c bd 47 4c 83 3c
       -0.038297195 0.118878186 -0.06155702 0.016027583
0001a0 92 e5 03 3d 07 b2 8c bd cd 4a 75 3c b3 88 ac bd
       0.032201357 -0.068698935 0.014971447 -0.08424511
0001b0 d4 e1 9a bd 03 78 24 bc 24 59 0b be 65 a2 bb bd
       -0.075626045 -0.010038379 -0.13608223 -0.09161834
0001c0 d2 c9 10 bd fe 97 94 bd 8a 65 73 bd 61 5a fd bd
       -0.03534872 -0.07255553 -0.059423007 -0.12370754
0001d0 03 e1 8a 3c 0c b8 47 bd 67 07 f3 bc 93 45 8c 3d
       0.016952997 -0.048759505 -0.029666616 0.06849208
0001e0 e4 f0 cf bd 8f 4b fc 3d 89 97 09 be b3 d7 23 bc
       -0.10153368 0.12319099 -0.13436712 -0.010000157
0001f0 00 dc 2c bd 8a 15 d9 bd 45 a6 27 3d 5d f2 8c 3c
       -0.042201996 -0.105998114 0.04093005 0.017205412
